resources/saved_models/model_28x28/model28x28_1000epochs_critic.pth (torch, 148847 bytes, 13 tensors)

crit.0.0.weight f4 [32, 3, 4, 4]
0.25183105 -0.21341947 -0.40440905 0.083347574 -0.2002047 -0.73472095 -1.1802858 -0.5131408
0.7202494 0.59405136 0.49050435 0.55037606 0.21967573 0.13574591 0.49704483 0.45407218
0.5687315 0.11560414 -0.0941259 0.3933477 0.08380176 -0.4155176 -0.9197541 -0.25830728
0.49000764 0.36326602 0.25179416 0.34200957 0.03933625 -0.09162212 0.22753456 0.17869358
0.493656 0.12868212 0.07216078 0.5063386 0.059406027 -0.34648907 -0.6931811 -0.106511086
0.049962103 -0.06964317 -0.12277165 -0.02742015 -0.3649189 -0.49194294 -0.18193704 -0.18049683
-0.34705707 -0.28847924 -0.20295614 -0.1756292 -0.313911 -0.14503291 -0.045946646 -0.0638799
0.25150385 0.52915394 0.5241961 0.2394888 0.5806746 0.78762496 0.73868287 0.47186428
-0.41393286 -0.43300745 -0.48015565 -0.4320776 -0.37497476 -0.24327737 -0.26151547 -0.25865254
0.0723665 0.34620345 0.46525258 0.18788636 0.3657924 0.5725381 0.7086121 0.45015666
-0.42570022 -0.4474288 -0.56525344 -0.51008034 -0.36276045 -0.2641347 -0.36364564 -0.3426245
0.0826553 0.2938092 0.3690233 0.11465463 0.32121253 0.49606192 0.6045003 0.37153706
0.6102941 0.43083185 0.38457364 0.48973903 0.9207523 0.8973702 0.8719966 0.8453545
0.5565758 0.71654683 0.75978196 0.8374464 -0.0017594494 0.16602115 0.40876153 0.4754986
0.07028344 -0.15237644 -0.0824141 -0.03927199 0.4093967 0.38385153 0.4074057 0.25186595
0.33779353 0.41591617 0.47578427 0.55728316 -0.20166935 -0.10494103 0.14486428 0.25831392
-0.32685876 -0.560162 -0.5930819 -0.5015187 -0.0034012871 -0.08244309 -0.18564364 -0.25192237
0.27245793 0.38764924 0.17789073 0.26687157 -0.24605234 -0.12264155 -0.13891421 -0.03642074
0.38290378 0.3375846 0.69103086 0.7572138 0.2907645 -0.0056689414 0.4225758 0.48789838
0.26200733 -0.119017266 -0.08130466 0.16930193 0.14338346 -0.15918724 -0.12980397 0.047813576
0.5397679 0.51737946 1.091442 1.1408273 0.44526863 0.17223439 0.8066117 0.8629922
0.22902182 -0.14447236 0.10170416 0.39595914 0.117913514 -0.17112643 0.059840184 0.24089305
0.06799615 -0.006678667 0.7796796 0.86316377 -0.0028218774 -0.26210594 0.51834136 0.6195832
-0.28597873 -0.60541856 -0.16154806 0.15828149 -0.3736247 -0.61268383 -0.1957407 0.02631531
-0.6500438 -0.46535632 -0.40887538 -0.5022859 -0.19253266 0.3629985 -0.19473338 -0.5497983
-0.742243 -0.0026120832 -0.07148718 0.0891083 -0.46949056 -0.19794019 -0.17867252 0.16002795
0.08695026 0.24922495 0.15240009 0.1280574 0.52828616 1.1228176 0.46177918 0.12741525
-0.28933817 0.48385248 0.45929715 0.5529108 -0.065847166 0.20317435 0.32683793 0.5900706
-0.2677811 -0.1625244 -0.328769 -0.27796805 0.1928476 0.67860323 0.061064254 -0.19545798
-0.7703081 -0.10859841 0.14584307 0.22259665 -0.594838 -0.3273388 0.057473484 0.3002118
0.41174433 0.27880222 0.18870725 0.35338554 0.5678656 0.30870488 0.1812798 0.4301892
0.4367681 0.120674334 -0.090240456 0.22454204 0.30962396 0.035278413 -0.027248684 0.09464524
00000000: 00f0 803e a28a 5abe b40e cfbe 22b2 aa3d
00000010: 7602 4dbe ac16 3cbf 9b13 97bf 325d 03bf
00000020: 4462 383f c013 183f 6323 fb3e 72e5 0c3f
00000030: adf2 603e fa00 0b3e a97c fe3e 267c e83e
00000040: 6398 113f ddc1 ec3d 14c5 c0bd df64 c93e
00000050: 42a0 ab3d b9be d4be 0175 6bbf da40 84be
00000060: 48e2 fa3e 01fe b93e 2aeb 803e e11b af3e
00000070: 0c1f 213d 61a4 bbbd d2fe 683e 73fb 363e
00000080: 7bc0 fc3e 3fc5 033e 08c9 933d 689f 013f
00000090: bc53 733d 0467 b1be 5174 31bf 7c22 dabd
000000a0: 10a5 4c3d 14a1 8ebd b46f fbbd 39a0 e0bc
000000b0: a6d6 babe f2df fbbe b44d 3abe 29d4 38be
000000c0: 77b1 b1be 8db3 93be bcd3 4fbe 24d8 33be
000000d0: f1b8 a0be 8283 14be 8d32 3cbd 77d3 82bd
000000e0: 1dc5 803e a276 073f b731 063f 8d3c 753e
000000f0: 17a7 143f caa1 493f 521a 3d3f 3298 f13e
00000100: 02ef d3be 27b3 ddbe f6d6 f5be 4639 ddbe
00000110: b1fc bfbe b41d 79be 5be5 85be 1b6e 84be
00000120: e334 943d 9441 b13e 9635 ee3e 4865 403e
00000130: 2449 bb3e db91 123f 9a67 353f ef7a e63e
00000140: 61f5 d9be 6315 e5be 73b4 10bf a094 02bf
00000150: bdbb b9be aa3c 87be c32f babe 7a6c afbe
00000160: 2f47 a93d 296e 963e 9ff0 bc3e 0cd0 ea3d
00000170: f875 a43e d4fb fd3e 88c0 1a3f 1b3a be3e
00000180: 3c3c 1c3f fe95 dc3e d6e6 c43e 13bf fa3e
00000190: 6cb6 6b3f 0eba 653f 2b3b 5f3f 2769 583f
000001a0: c07b 0e3f 9d6f 373f 1281 423f e362 563f
000001b0: 539d e6ba 7301 2a3e 3149 d13e 8d74 f33e
000001c0: c4f0 8f3d 9208 1cbe b9c8 a8bd abdb 20bd
000001d0: 729c d13e 3088 c43e 7b97 d03e 93f4 803e
000001e0: 46f3 ac3e f7f2 d43e ff99 f33e 1caa 0e3f
000001f0: 6982 4ebe 53eb d6bd 4d57 143e b941 843e
00000200: 085a a7be c766 0fbf 37d4 17bf 8863 00bf
00000210: 21e8 5ebb ecd7 a8bd 5e19 3ebe f8fb 80be
00000220: 9b7f 8b3e f679 c63e fd28 363e 64a3 883e
00000230: 25f5 7bbe 7e2b fbbd 873f 0ebe ea2d 15bd
00000240: f70b c43e e4d7 ac3e 66e7 303f c3d8 413f
00000250: 16df 943e 87c2 b9bb db5b d83e d1cd f93e
00000260: d325 863e 53bf f3bd 0f83 a6bd 7c5d 2d3e
00000270: 1dd3 123e fb01 23be 55eb 04be 2bd8 433d
00000280: 3b2e 0a3f fb72 043f 5fb4 8b3f a106 923f
00000290: 40fa e33e 365e 303e 1b7e 4e3f 0fed 5c3f
000002a0: b284 6a3e 90f0 13be 454a d03d 28bb ca3e
000002b0: a47c f13d c43b 2fbe fb1a 753d abac 763e
000002c0: 9141 8b3d b8d8 dabb 1599 473f 4df8 5c3f
000002d0: 3fef 38bb c032 86be 05b2 043f 019d 1e3f
000002e0: ce6b 92be b6fc 1abf db6c 25be 8b14 223e
000002f0: bd4b bfbe d9d8 1cbf 4070 48be 3493 d73c
00000300: 4569 26bf 2f43 eebe 1d58 d1be cf95 00bf
00000310: 4827 45be f0da b93e 3068 47be 95bf 0cbf
00000320: a303 3ebf 7c2f 2bbb df67 92bd 6a7e b63d
00000330: 1161 f0be d5b0 4abe eef5 36be 5ede 233e
00000340: fa12 b23d d334 7f3e c50e 1c3e 7b21 033e
00000350: c33d 073f 7db8 8f3f 526e ec3e 2579 023e
00000360: 2224 94be 83bb f73e ff28 eb3e 908b 0d3f
00000370: e1da 86bd f00c 503e 4d57 a73e de0e 173f
00000380: 9b1a 89be cc6c 26be 6954 a8be d451 8ebe
00000390: d779 453e f1b8 2d3f 831e 7a3d 2326 48be
000003a0: e932 45bf d868 debd e357 153e 60f0 633e
000003b0: 4e47 18bf f498 a7be 5169 6b3d 5cb5 993e
000003c0: 27d0 d23e 2abf 8e3e 793c 413e f3ee b43e
000003d0: a45f 113f 910e 9e3e 69a1 393e c241 dc3e
000003e0: 12a0 df3e 1b24 f73d fdcf b8bd 59ee 653e
000003f0: 0887 9e3e 1980 103d a238 dfbc 5dd5 c13d

crit.0.0.bias f4 [32]
-0.27902043 -0.60532373 0.29217473 6.943986 -0.11898366 0.54902524 -4.8706336 0.49693978
-2.0674515 -0.27906752 -0.3769113 0.4615028 0.33858612 -1.9681582 -0.089593746 9.134197
-0.13503794 -0.26226497 0.01177037 -0.20090912 -1.8591628 -1.1852292 9.779187 1.0585924
0.7217674 0.38496774 -1.2418406 -0.06343651 0.101376735 -1.0961847 0.21056923 -0.37343395
00000000: c4db 8ebe 7ff6 1abf ed97 953e 2235 de40
00000010: b5ad f3bd eb8c 0c3f 3bdc 9bc0 e46e fe3e
00000020: 2051 04c0 f0e1 8ebe 85fa c0be 184a ec3e
00000030: 295b ad3e 9cec fbbf ed7c b7bd ac25 1241
00000040: 6347 0abe 9847 86be 83d8 403c 1fbb 4dbe
00000050: 0cf9 edbf 97b5 97bf 8d77 1c41 f57f 873f
00000060: c0c5 383f 7e1a c53e a2f4 9ebf 00eb 81bd
00000070: 9b9e cf3d c84f 8cbf 769f 573e bc32 bfbe

crit.0.1.weight f4 [32]
0.1929801 -0.6764307 0.40173092 0.6564838 0.1746591 1.4654344 2.3249135 -0.7506808
0.7267773 -0.2331183 0.20547019 0.4569258 0.2626896 -1.1513351 -0.23793541 -1.0021487
0.32547832 -0.25105023 0.34597597 -0.5785661 0.6441502 -0.2600797 -0.33661333 0.8159356
0.46529835 1.5502383 -0.37428683 -0.2883297 -0.1104139 -0.98156947 0.4165961 0.8645719
00000000: 939c 453e 902a 2dbf adaf cd3e 530f 283f
00000010: d6d9 323e 5b93 bb3f 62cb 1440 9e2c 40bf
00000020: 140e 3a3f 90b6 6ebe c766 523e 2ef2 e93e
00000030: 407f 863e f35e 93bf 57a5 73be 6946 80bf
00000040: 18a5 a63e a889 80be c323 b13e e81c 14bf
00000050: 07e7 243f 2b29 85be 9558 acbe 28e1 503f
00000060: 963b ee3e 356e c63f 86a2 bfbe f39f 93be
00000070: af20 e2bd 2348 7bbf 164c d53e 9654 5d3f

crit.0.1.bias f4 [32]
2.7957575 0.5293148 0.53076625 2.0667565 0.6577335 0.328673 1.8349904 0.3059361
0.98478734 0.737226 1.1663811 2.9974632 1.5570523 0.91906416 1.6795343 0.19136436
0.1344807 1.4052615 1.5775024 0.18205994 0.5961521 1.7367191 0.8129458 1.1561384
0.52064997 -0.15802702 0.88101286 0.39350057 0.71853644 0.36143583 2.3356233 1.0239816
00000000: b1ed 3240 2d81 073f 4ce0 073f bd45 0440
00000010: 3961 283f d447 a83e f7e0 ea3f a8a3 9c3e
00000020: 061b 7c3f d8ba 3c3f fa4b 953f 70d6 3f40
00000030: 7d4d c73f ca47 6b3f fbfa d63f 05f5 433e
00000040: 4fb5 093e 9cdf b33f 99eb c93f ec6d 3a3e
00000050: 6d9d 183f d04c de3f 371d 503f 58fc 933f
00000060: 5149 053f d6d1 21be 0f8a 613f e878 c93e
00000070: 01f2 373f 1e0e b93e da7a 1540 d411 833f

crit.0.1.running_mean f4 [32]
9.160315 45.722626 201.52264 167.77116 -42.647903 264.11478 -316.6312 -57.09103
-152.67615 7.3252816 32.750366 3.131387 12.523298 205.72002 9.814034 -138.4961
21.78205 25.53207 20.81047 -56.082043 -14.586271 2.6254117 -71.91934 -195.35454
184.36543 293.82303 57.850212 3.7028902 -40.22152 -178.43987 -91.57862 -44.17111
00000000: a690 1241 f8e3 3642 cc85 4943 6bc5 2743
00000010: 7497 2ac2 b10e 8443 cb50 9ec3 375d 64c2
00000020: 18ad 18c3 b568 ea40 6000 0342 a568 4840
00000030: 6e5f 4841 53b8 4d43 4906 1d41 007f 0ac3
00000040: a341 ae41 ae41 cc41 d87b a641 0354 60c2
00000050: 5e61 69c1 bf06 2840 b4d6 8fc2 c35a 43c3
00000060: 8d5d 3843 59e9 9243 9e66 6742 27fc 6c40
00000070: d6e2 20c2 9b70 32c3 4128 b7c2 37af 30c2

crit.0.1.running_var f4 [32]
2914.137 7118.9585 28921.703 18445.303 2065.2021 13689.755 29131.13 7159.1567
12527.5 1856.4515 14541.744 5445.33 2306.9229 9440.803 1400.3113 13221.331
4785.5615 4505.5293 8180.4634 5619.556 6897.7085 2017.3962 18563.176 4848.8364
9285.255 34826.594 9197.399 6877.9165 13532.484 5875.8506 9339.378 6319.324
00000000: 3122 3645 ab77 de45 68f3 e146 9b1a 9046
00000010: 3c13 0145 05e7 5546 4396 e346 41b9 df45
00000020: 00be 4346 730e e844 fa36 6346 a42a aa45
00000030: c42e 1045 3683 1346 f609 af44 5395 4e46
00000040: 7e8c 9545 3ccc 8c45 b5a3 ff45 739c af45
00000050: ab8d d745 ae2c fc44 5a06 9146 b186 9745
00000060: 0515 1146 980a 0847 99b5 0f46 55ef d645
00000070: f071 5346 ce9e b745 83ed 1146 987a c545

crit.1.0.weight f4 [64, 32, 4, 4]
-0.47061828 -0.16485558 -0.57672524 -1.1512686 -0.23163767 -0.22035718 0.29663512 -0.36604604
-0.7125017 -0.37038663 0.03284587 0.30110547 0.701275 -0.2004925 0.7064299 -0.586524
-0.539906 0.18697079 0.38537404 0.5930768 -0.13222462 0.24823952 0.35302803 -0.14583246
-0.93644726 -0.39485183 -1.4944624 -0.92146707 -0.727072 -0.74707067 -0.8826001 -0.6685971
0.69437754 0.35488474 0.29380092 0.18892875 -0.6848818 0.08239399 -0.20265275 -0.14697513
-0.4589668 -0.08386134 -0.61508316 0.042663626 0.25838506 0.35407248 0.32781345 0.27305612
0.6727563 1.5332562 0.22848874 -0.011480762 0.59196943 0.49565703 -0.19911402 0.5012601
0.49588224 0.13088319 -0.29340857 0.5627378 0.21533248 -0.08123797 -0.17378348 0.3665573
-0.19545281 -0.0010570545 -0.5215917 0.3464285 -0.25990182 -0.61541563 0.54902136 -0.9008269
0.4731489 -0.8689144 -0.5755362 -0.54298097 -0.8522119 -0.13198297 -0.09630459 -0.22503942
-0.3328699 0.02384743 0.5166762 -0.735084 -0.12238256 -0.5520084 -0.22800446 0.016369568
-0.63701075 -0.14715354 0.2953136 -0.51439214 0.24314225 -0.017912755 0.09288648 0.05207211
-0.25853437 0.051975295 0.09115554 -0.59621716 -0.89725906 -1.4541992 -0.6093939 -0.6122341
-0.20216049 -0.9393921 -0.013681972 0.47726515 0.027568119 0.27650523 -0.43013966 -0.1802734
-0.30712485 -0.47665343 -0.24631603 -0.0069110324 -0.26687822 -0.21603051 -0.27286917 -0.3939357
-0.63769037 -0.18347314 -0.30201125 -1.0517851 0.3739732 0.4500287 -0.14757586 -0.3431571
-0.7216656 -0.85692424 -0.31934988 -0.54418683 -1.0475111 -0.68226045 -0.58062327 0.15962826
-0.10406685 -0.4297048 0.017013555 0.2798937 0.3115086 0.26022246 0.48351932 0.1804421
0.1372896 -0.48527426 -0.11378447 -0.7341736 0.7271561 0.05522305 -0.26553324 -0.3990377
-0.15364857 -0.3660905 -0.7938293 0.20306183 -0.8801863 -0.10786231 0.098193504 -0.017534606
-0.2825986 0.14908016 0.11746801 0.03325867 0.090308025 0.58387536 0.060792334 0.22109847
0.40236527 -0.37747556 -0.34587082 -0.044234976 1.0418425 0.36356813 0.09437048 0.44292176
-0.8372292 0.45460704 0.066199385 0.36906415 0.22377141 0.20820943 0.35487303 -0.024504414
0.46505448 -0.056823615 -0.11611737 0.105459645 0.06647692 0.19010784 -0.24295253 0.39323813
1.3796 0.23702382 0.14975995 -0.28326797 1.5602089 0.23064934 0.30573684 -0.022455033
0.3647994 -0.28016266 -0.3223729 -0.16510685 1.0604401 0.6929862 0.6454995 0.153033
0.095713414 -0.02546667 -0.054001015 -0.62044597 -0.20386085 -0.5432118 -0.30344787 -0.32187632
-0.08964817 -0.16645989 -0.39756447 0.01344569 -0.35432136 0.93259037 0.59850603 0.1558307
-0.9682743 -0.20938474 -0.16330342 0.80664235 0.021686004 0.22307411 0.2488867 0.7198092
-0.04544508 -0.07390441 -0.05587013 0.20299588 -0.34535024 -0.23777038 -0.8031275 -0.5515268
-0.9809345 -0.28033695 0.4591089 -0.102033116 -0.46615958 0.026552862 -0.032157704 -0.005096503
-0.5655769 -0.62346536 0.37752515 -0.6994419 -0.19447744 -1.0172755 -0.021642746 -0.22883266
00000000: e1f4 f0be e7cf 28be 44a4 13bf c55c 93bf
00000010: 6d32 6dbe 50a5 61be 8fe0 973e 636a bbbe
00000020: 8366 36bf 51a3 bdbe 6489 063d 7f2a 9a3e
00000030: c286 333f e84d 4dbe 97d8 343f 7026 16bf
00000040: 4837 0abf 4575 3f3e bf4f c53e e2d3 173f
00000050: e465 07be 8032 7e3e 17c0 b43e 1b55 15be
00000060: 02bb 6fbf 052a cabe 8b4a bfbf 44e5 6bbf
00000070: 6421 3abf 0640 3fbf 15f2 61bf 2e29 2bbf
00000080: bac2 313f 74b3 b53e 136d 963e 8a76 413e
00000090: 6a54 2fbf 2ebe a83d 3484 4fbe a680 16be
000000a0: b2fd eabe 7fbf abbd 1776 1dbf 0ec0 2e3d
000000b0: 0c4b 843e fd48 b53e 2ad7 a73e 03ce 8b3e
000000c0: c239 2c3f bd41 c43f f4f8 693e ce19 3cbc
000000d0: 4f8b 173f c2c6 fd3e 8ce4 4bbe 9552 003f
000000e0: 47e4 fd3e 3e06 063e a639 96be 960f 103f
000000f0: 1e80 5c3e 1860 a6bd 4cf4 31be 66ad bb3e
00000100: c824 48be dd8c 8aba 0987 05bf 145f b13e
00000110: da11 85be e18b 1dbf aa8c 0c3f 979c 66bf
00000120: 9340 f23e 2d71 5ebf 5756 13bf cd00 0bbf
00000130: 8f2a 5abf 8b26 07be 573b c5bd bc70 66be
00000140: ec6d aabe af5b c33c e444 043f 772e 3cbf
00000150: b5a3 fabd 6c50 0dbf 007a 69be 7919 863c
00000160: 2313 23bf 6baf 16be 5833 973e 34af 03bf
00000170: 48fa 783e c5bd 92bc 443b be3d 9149 553d
00000180: 9e5e 84be 0ce4 543d c1af ba3d b0a1 18bf
00000190: c5b2 65bf 3323 babf 3d01 1cbf 60bb 1cbf
000001a0: 2903 4fbe 007c 70bf 5a2a 60bc 195c f43e
000001b0: 89d6 e13c 1892 8d3e 443b dcbe 9799 38be
000001c0: 783f 9dbe eb0b f4be 453a 7cbe f175 e2bb
000001d0: 43a4 88be 1a37 5dbe 82b5 8bbe f1b1 c9be
000001e0: ad3f 23bf 62e0 3bbe 38a1 9abe e5a0 86bf
000001f0: 6a79 bf3e 296a e63e 201e 17be 4ab2 afbe
00000200: 14bf 38bf 635f 5bbf d481 a3be d44f 0bbf
00000210: d814 86bf 9fa8 2ebf baa3 14bf 9775 233e
00000220: 0021 d5bd 4402 dcbe 0360 8b3c 3a4e 8f3e
00000230: 0e7e 9f3e e13b 853e d88f f73e d0c5 383e
00000240: a595 0c3e de75 f8be d507 e9bd cdf2 3bbf
00000250: e726 3a3f 9131 623d f9f3 87be ab4e ccbe
00000260: 0d56 1dbe 3770 bbbe 6638 4bbf 71ef 4f3e
00000270: e453 61bf eae6 dcbd ad19 c93d bca4 8fbc
00000280: c4b0 90be 78a8 183e 1193 f03d 3e3a 083d
00000290: 6af3 b83d db78 153f 6201 793d a367 623e
000002a0: d202 ce3e 7a44 c1be fb15 b1be bc2f 35bd
000002b0: 185b 853f 9a25 ba3e 4f45 c13d a4c6 e23e
000002c0: a754 56bf 41c2 e83e 8b93 873d faf5 bc3e
000002d0: 5524 653e da34 553e ebb1 b53e 7bbd c8bc
000002e0: 9f1b ee3e e1bf 68bd f2ce edbd 3afb d73d
000002f0: 0d25 883d a1ab 423e 8cc8 78be 8256 c93e
00000300: bc96 b03f 5fb6 723e ac5a 193e 8008 91be
00000310: edb4 c73f 572f 6c3e 8a89 9c3e 9ef3 b7bc
00000320: fdc6 ba3e 7b71 8fbe 100e a5be c511 29be
00000330: 80bc 873f 8b67 313f 753f 253f afb4 1c3e
00000340: 6505 c43d 7a9f d0bc 2b30 5dbd 8cd5 1ebf
00000350: e6c0 50be ee0f 0bbf 855d 9bbe f9cc a4be
00000360: 7699 b7bd 7674 2abe 928d cbbe 504b 5c3c
00000370: 9c69 b5be 3ebe 6e3f b137 193f 1592 1f3e
00000380: d3e0 77bf f468 56be 0339 27be 1d80 4e3f
00000390: d9a6 b13c 8a6d 643e 28dc 7e3e 6a45 383f
000003a0: 9f24 3abd 325b 97bd 14d8 64bd 27de 4f3e
000003b0: bfd1 b0be 147a 73be c499 4dbf dc30 0dbf
000003c0: 861e 7bbf 5388 8fbe 5210 eb3e bdf6 d0bd
000003d0: 78ac eebe 6385 d93c ccb7 03bd 9100 a7bb
000003e0: a6c9 10bf 6d9b 1fbf fa4a c13e a00e 33bf
000003f0: 1825 47be 1536 82bf 214c b1bc 1c53 6abe

crit.1.0.bias f4 [64]
4.728618 -7.640596 8.8543415 7.2695374 6.069887 -2.9246452 -6.3264313 3.0846777
-3.7481573 5.6579328 -3.4208868 3.8359685 -2.6912649 -2.5390475 1.2971591 0.87597424
1.7052977 -2.5312126 -3.3743412 -1.0315292 -0.58160925 -0.784995 1.8355942 -6.133011
-3.835013 2.7753077 -3.4792736 0.73717266 -4.5932884 9.326008 -2.2726018 -5.061304
4.2758384 6.1316066 2.928394 3.8874896 8.005692 -5.107143 -2.8467524 10.422066
5.4202375 8.732809 4.0546336 -2.0502965 -7.8447948 5.209868 5.700946 4.1097674
7.41629 -9.327741 -8.465747 1.624819 6.091203 6.1245594 0.1419241 -4.4872355
-2.348116 2.8567333 -0.6434497 -7.621484 7.442785 3.1991556 7.119119 6.600706
00000000: d750 9740 c37f f4c0 62ab 0d41 0da0 e840
00000010: 843c c240 632d 3bc0 2072 cac0 5c6b 4540
00000020: cfe1 6fc0 c90d b540 cfef 5ac0 8280 7540
00000030: af3d 2cc0 c17f 22c0 4f09 a63f d93f 603f
00000040: 3247 da3f 63ff 21c0 35f5 57c0 2609 84bf
00000050: 58e4 14bf 6ff5 48bf c0f4 ea3f a041 c4c0
00000060: da70 75c0 a49e 3140 6bac 5ec0 59b7 3c3f
00000070: 38fc 92c0 5437 1541 4f72 11c0 34f6 a1c0
00000080: abd3 8840 1f36 c440 cf6a 3b40 a1cc 7840
00000090: 5017 0041 b76d a3c0 3131 36c0 c8c0 2641
000000a0: 9672 ad40 96b9 0b41 8fbf 8140 0f38 03c0
000000b0: 8f08 fbc0 3db7 a640 266e b640 3783 8340
000000c0: 3f52 ed40 6d3e 15c1 b373 07c1 12fa cf3f
000000d0: 23eb c240 64fc c340 8d54 113e 6f97 8fc0
000000e0: 8847 16c0 b8d4 3640 1fb9 24bf 32e3 f3c0
000000f0: 4b2b ee40 f7be 4c40 d3cf e340 fc38 d340

crit.1.1.weight f4 [64]
0.9958205 -0.7720042 0.86990803 -0.97029513 0.6703917 0.8043752 -0.6774502 0.7402775
0.77030057 0.955354 0.7465563 0.7286378 0.936519 -0.7065992 -0.6153436 -0.638309
-0.8476771 0.7181283 0.637809 0.79431844 0.7827402 -0.8402854 0.8194497 -0.7104248
-0.63611394 0.8466069 0.8860908 0.8687928 -0.8753085 -1.1329972 -0.9353175 0.98421293
0.701406 -0.86129355 -0.73920465 0.7732883 -0.7519446 0.7604738 0.5481023 -0.9079479
-0.7142222 1.0502775 -0.697 -0.80590117 0.68289906 0.77292114 -0.7421421 0.88701046
-0.82218546 0.86935663 0.85648954 -0.8270455 1.1979483 1.1394778 -0.7128073 0.91199195
-0.90904456 -0.90862596 1.1640695 -0.98480844 0.8796218 -0.47500622 -1.0797448 0.52694494
00000000: 18ee 7e3f 11a2 45bf 4bb2 5e3f 4365 78bf
00000010: ca9e 2b3f 88eb 4d3f 606d 2dbf d482 3d3f
00000020: 6b32 453f 1492 743f 501e 3f3f 0288 3a3f
00000030: b6bf 6f3f afe3 34bf 2887 1dbf 3868 23bf
00000040: 5e01 59bf 42d7 373f 7347 233f 7458 4b3f
00000050: a961 483f f21c 57bf 75c7 513f 66de 35bf
00000060: 5dd8 22bf 3bbb 583f d9d6 623f 3469 5e3f
00000070: 3814 60bf 0d06 91bf f870 6fbf 61f5 7b3f
00000080: 588f 333f bc7d 5cbf 843c 3dbf 39f6 453f
00000090: 717f 40bf 69ae 423f 6f50 0c3f 466f 68bf
000000a0: 44d7 36bf 7e6f 863f 986e 32bf 8a4f 4ebf
000000b0: 79d2 2e3f 29de 453f 06fd 3dbf 1e13 633f
000000c0: bf7a 52bf 288e 5e3f e642 5b3f 41b9 53bf
000000d0: 5f56 993f 69da 913f 8a7a 36bf 4e78 693f
000000e0: 25b7 68bf b69b 68bf 3b00 953f 681c 7cbf
000000f0: e52e 613f 0434 f3be 1435 8abf dde5 063f

crit.1.1.bias f4 [64]
3.705299 1.042209 3.2563472 3.4849465 1.1285658 0.83304167 0.2508279 0.5387776
1.391463 1.2492061 0.44754946 2.5455513 2.2506943 0.5365245 0.17969088 0.9002675
0.463829 0.33318385 0.4545215 1.343789 0.7289654 1.2537272 1.2943727 0.89535457
0.6072853 1.0101875 0.80916435 1.2177416 1.333099 3.7188914 0.5338679 0.9917452
0.44437876 1.4111211 0.6475386 1.206706 1.4172131 1.2403768 0.371344 2.4864514
0.87550837 2.133375 0.5769074 1.4591444 0.9339353 0.67986965 0.87698853 1.558872
2.5481591 3.2195675 1.3062096 2.9273252 1.5561006 4.4970136 0.19349253 1.2090586
0.9679117 2.066207 3.159664 4.144144 1.3558036 0.14506984 2.5935886 0.55001056
00000000: 9e23 6d40 1b67 853f fe67 5040 5d09 5f40
00000010: d874 903f 3842 553f 846c 803e 54ed 093f
00000020: 761b b23f fce5 9f3f 3425 e53e 50ea 2240
00000030: 600b 1040 ab59 093f e300 383e ee77 663f
00000040: ff7a ed3e 1397 aa3e 0bb7 e83e 4701 ac3f
00000050: 7a9d 3a3f 227a a03f 01ae a53f f535 653f
00000060: 0d77 1b3f d34d 813f 6525 4f3f f5de 9b3f
00000070: fda2 aa3f 5102 6e40 91ab 083f 03e3 7d3f
00000080: 9d85 e33e 9e9f b43f 17c5 253f 5875 9a3f
00000090: 3d67 b53f abc4 9e3f cd20 be3e 0522 1f40
000000a0: 5121 603f 3789 0840 34b0 133f 3ec5 ba3f
000000b0: 6216 6f3f f00b 2e3f 5282 603f 1e89 c73f
000000c0: 0a15 2340 650d 4e40 e031 a73f 4c59 3b40
000000d0: 4e2e c73f 89e7 8f40 e822 463e 6fc2 9a3f
000000e0: 10c9 773f bc3c 0440 ef37 4a40 d49c 8440
000000f0: f98a ad3f 308d 143e 5bfd 2540 7ecd 0c3f

crit.1.1.running_mean f4 [64]
-16.35804 50.864567 -20.719484 -20.640598 -9.724211 23.75533 51.166256 3.9672093
15.983339 -13.348205 6.3209043 -19.273487 17.539272 38.20996 9.197672 10.145661
-24.207453 5.1064353 7.7359986 6.6528635 5.564523 -1.1218556 -20.11556 16.56117
5.0799284 -7.40792 18.559853 -14.618294 35.599094 -50.73981 27.931072 57.63225
-7.844583 -38.075848 -20.179132 -2.4885743 -21.370258 2.969366 12.156652 -39.768204
-16.141788 -2.5092256 -13.475799 -3.6323864 32.233795 -33.280857 -63.32341 -63.935852
-18.955265 45.117054 61.063904 -43.56123 -11.772128 -23.893251 -22.215546 18.59423
38.83118 9.678353 3.2533529 11.751147 -54.257896 -43.310734 -21.117275 -16.195856
00000000: 44dd 82c1 5175 4b42 81c1 a5c1 f21f a5c1
00000010: 5e96 1bc1 ea0a be41 3faa 4c42 c2e6 7d40
00000020: c2bb 7f41 3f92 55c1 d944 ca40 1a30 9ac1
00000030: 6e50 8c41 00d7 1842 aa29 1341 a154 2241
00000040: dda8 c1c1 eb67 a340 4d8d f740 42e4 d440
00000050: 9310 b240 f798 8fbf abec a0c1 477d 8441
00000060: c68e a240 ae0d edc0 947a 9441 88e4 69c1
00000070: 7965 0e42 91f5 4ac2 d672 df41 6d87 6642
00000080: d306 fbc0 ab4d 18c2 dd6e a1c1 cd44 1fc0
00000090: 4af6 aac1 180a 3e40 a681 4241 a412 1fc2
000000a0: 6222 81c1 2797 20c0 df9c 57c1 0579 68c0
000000b0: 68ef 0042 991f 05c2 2c4b 7dc2 50be 7fc2
000000c0: 62a4 97c1 dd77 3442 7041 7442 b33e 2ec2
000000d0: a35a 3cc1 6125 bfc1 70b9 b1c1 fcc0 9441
000000e0: 2153 1b42 89da 1a41 ef36 5040 b304 3c41
000000f0: 1608 59c2 313e 2dc2 2ef0 a8c1 1d91 81c1

crit.1.1.running_var f4 [64]
31.073734 23.970642 51.41545 22.985226 55.377518 32.806503 44.171368 23.824223
99.785416 89.875496 38.480236 43.047134 111.27177 37.64995 31.562958 22.053215
38.61465 80.444336 49.593716 26.391216 120.84711 43.116714 72.13613 36.000835
26.581387 39.265404 21.855331 21.303972 85.22254 19.226522 77.38832 61.54907
27.159363 77.84351 42.84453 25.21836 73.03682 43.54678 17.284101 38.975838
97.206345 50.822853 32.437817 27.519274 23.599583 18.09084 113.7126 58.5996
62.98642 34.723244 107.1336 35.42079 93.61789 83.34405 18.597483 69.866806
77.194145 64.97122 58.2285 56.01339 30.967104 28.450796 17.652363 16.97945
00000000: 0297 f841 e0c3 bf41 6ca9 4d42 bee1 b741
00000010: 9482 5d42 dc39 0342 7baf 3042 0298 be41
00000020: 2292 c742 41c0 b342 c3eb 1942 4430 2c42
00000030: 258b de42 8c99 1642 f080 fc41 fc6c b041
00000040: 6775 1a42 80e3 a042 f75f 4642 3621 d341
00000050: b8b1 f142 8477 2c42 b345 9042 db00 1042
00000060: aea6 d441 c60f 1d42 b8d7 ae41 896e aa41
00000070: f171 aa42 ebcf 9941 d2c6 9a42 3f32 7642
00000080: 6046 d941 e1af 9b42 cc60 2b42 34bf c941
00000090: da12 9242 e72f 2e42 d745 8a41 42e7 1b42
000000a0: a669 c242 9a4a 4b42 53c0 0142 7927 dc41
000000b0: f2cb bc41 0aba 9041 da6c e342 fe65 6a42
000000c0: 18f2 7b42 9ae4 0a42 6744 d642 e4ae 0d42
000000d0: 5c3c bb42 27b0 a642 a5c7 9441 cebb 8b42
000000e0: 6763 9a42 44f1 8142 fce9 6842 b60d 6042
000000f0: a1bc f741 3b9b e341 0a38 8d41 ead5 8741

crit.2.0.weight f4 [1, 64, 4, 4]
-0.73869276 -0.5808927 -0.70673805 -0.27986184 -1.3634834 -0.22921744 -0.25405496 0.061145805
-0.9659059 -0.17874146 -0.94725037 -0.2861061 -1.3680351 1.3119967 -0.26715526 0.51463217
1.0212696 0.34494695 0.42823717 -0.65409154 0.3244933 0.19274351 -0.49672344 -0.011776558
0.50344706 1.3670127 1.3470298 -0.22904323 1.1660016 0.6047039 1.2131509 0.85229987
-0.08195656 -0.18817772 0.25877768 0.7969316 0.37923703 0.47645307 1.047625 0.4833016
-0.2059148 0.5308912 -0.13460119 0.5768839 -0.87096417 0.8654035 -1.4711355 1.207911
-1.9774636 -0.5454084 -0.015718548 -0.09573304 -0.1933501 0.82184595 -0.27000692 0.62998813
0.11841295 0.9929057 1.2418994 0.6758923 -0.8876973 -0.21042982 0.6703465 0.51878643
0.58534724 -0.0754056 0.74015284 -0.24380226 0.9269631 0.16658524 -0.07775471 0.8168699
0.5362222 -1.200637 -0.9333687 1.1049637 -0.16141921 -0.6812393 0.8444027 -0.9497311
-1.8126001 -1.1458153 -0.85514414 -1.3178527 -0.64664155 0.14722618 -0.078721516 -0.16666357
-0.25314978 -0.18429837 0.10042561 0.28127334 -0.20096546 -0.0910419 1.2960064 0.009829165
0.29548386 1.6906854 1.2417969 1.258093 -0.42104378 -0.399455 0.339897 -0.025437577
-0.13377458 -0.29254538 -1.0972322 0.13445957 0.39272365 0.44770896 0.54832125 -0.062285714
1.8508441 0.990222 0.38493252 0.15455246 0.96684116 -0.50804824 -0.54985064 0.37837517
0.1986058 0.53930414 0.5673732 -0.18024704 0.6545753 0.6840677 -0.7336072 0.8351601
0.34388074 1.1242371 0.21852104 1.8196476 0.6490549 0.6630681 0.14563319 0.4480895
0.8827233 -0.66076016 -0.94495654 0.3791384 0.30925515 -0.5097231 0.3984738 0.60474217
-0.4734042 -1.125365 -0.7293334 -0.34943393 0.3394845 -0.31116223 -0.8959102 -0.8154989
0.8085327 -0.55110055 0.03925434 -0.28248817 1.207585 0.8468899 0.6487379 -0.44062433
-0.489696 -0.071250446 0.6619419 0.31592697 1.1709167 0.42161688 -0.35891014 0.9417385
0.5411457 1.2115813 1.2406232 0.88102674 0.056121826 1.036902 1.6834997 1.1213275
0.009588134 0.5892105 -0.5521501 -0.4968292 -0.55819 -0.123786695 0.72082144 -0.501123
-0.5472885 1.4141513 0.8957349 0.6155945 0.08751417 0.8816567 0.08785613 0.29993266
0.19438292 0.29001278 1.0585387 1.77443 -0.4272961 0.26511028 0.8686637 0.66934544
-0.44338807 0.35484523 1.1097187 -0.22772872 0.37633434 -0.28244874 -1.0161811 -0.6892934
-0.6960454 -0.34102118 -0.12879041 -0.33368173 -0.28473756 -0.6576475 0.3255533 0.5118656
-0.4580121 0.01440377 0.1640128 1.2858049 -0.66875124 -0.73375124 1.2620596 1.180369
2.2103424 1.0655197 1.060097 1.6681851 0.25436836 -0.353998 -0.6892377 0.69749343
0.56911963 0.079302065 0.21881555 -0.38124192 0.55020297 -0.3287457 -1.1926666 0.041296363
-0.8293071 -0.7435955 -0.3615909 0.05001568 -1.0656923 -1.0063088 -0.43606466 -0.20998923
-0.17220846 0.22852628 0.68850386 -1.1670433 -0.7478889 -0.46276236 -0.5535507 0.9565354
00000000: f81a 3dbf 62b5 14bf c9ec 34bf 0d4a 8fbe
00000010: a086 aebf fab7 6abe 7e13 82be 0674 7a3d
00000020: 9c45 77bf 0008 37be 007f 72bf 807c 92be
00000030: c61b afbf 82ef a73f 93c8 88be efbe 033f
00000040: f6b8 823f e39c b03e e741 db3e 8b72 27bf
00000050: fc23 a63e 8e5e 453e 8952 febe 77f2 40bc
00000060: e8e1 003f 46fa ae3f 796b ac3f 4f8a 6abe
00000070: 8a3f 953f e0cd 1a3f 8748 9b3f 5330 5a3f
00000080: d7d8 a7bd a9b1 40be 827e 843e b603 4c3f
00000090: 5b2b c23e a8f1 f33e 9318 863f 4f73 f73e
000000a0: 54db 52be 7ce8 073f e5d4 09be aaae 133f
000000b0: 82f7 5ebf 158b 5d3f 2b4e bcbf d49c 9a3f
000000c0: 871d fdbf e39f 0bbf 2fc4 80bc af0f c4bd
000000d0: 92fd 45be 7f64 523f 593e 8abe e746 213f
000000e0: 7d82 f23d 112f 7e3f 8ff6 9e3f 4707 2d3f
000000f0: 2140 63bf ea7a 57be d49b 2b3f 30cf 043f
00000100: 51d9 153f 406e 9abd a87a 3d3f 4da7 79be
00000110: 744d 6d3f 5295 2a3e dd3d 9fbd 631e 513f
00000120: dc45 093f 79ae 99bf 40f1 6ebf 736f 8d3f
00000130: 144b 25be b365 2ebf c62a 583f 9421 73bf
00000140: 4803 e8bf 13aa 92bf baea 5abf 66af a8bf
00000150: 4d8a 25bf 76c2 163e bf38 a1bd dba9 2abe
00000160: d99c 81be b6b8 3cbe f1ab cd3d 0f03 903e
00000170: e4c9 4dbe 2d74 babd 8ae3 a53f 820a 213c
00000180: a949 973e 6168 d83f 33f3 9e3f 3109 a13f
00000190: 0d93 d7be 5e85 ccbe fb06 ae3e 7762 d0bc
000001a0: 34fc 08be 82c8 95be 1b72 8cbf c5af 093e
000001b0: 1313 c93e 1c3a e53e c85e 0c3f 4e1f 7fbd
000001c0: 76e8 ec3f 307f 7d3f e015 c53e 0043 1e3e
000001d0: e782 773f 730f 02bf 03c3 0cbf 64ba c13e
000001e0: 525f 4b3e d60f 0a3f 5f3f 113f ae92 38be
000001f0: 3f92 273f 101f 2f3f aecd 3bbf 0dcd 553f
00000200: 2311 b03e 00e7 8f3f fbc3 5f3e 36ea e83f
00000210: 7628 263f d5be 293f de20 153e fd6b e53e
00000220: 27fa 613f 9427 29bf ace8 71bf 6e1e c23e
00000230: b156 9e3e 377d 02bf c204 cc3e 62d0 1a3f
00000240: 0962 f2be f60b 90bf 98b5 3abf 01e9 b2be
00000250: ead0 ad3e a850 9fbe 5f5a 65bf 89c4 50bf
00000260: 00fc 4e3f ed14 0dbf 29c9 203d 4aa2 90be
00000270: 2592 9a3f c7cd 583f b013 263f 8399 e1be
00000280: 6fb9 fabe c1eb 91bd 0675 293f 2ec1 a13e
00000290: 99e0 953f 2bde d73e 12c3 b7be c615 713f
000002a0: 8688 0a3f 1915 9b3f becc 9e3f f88a 613f
000002b0: 00e0 653d 34b9 843f eb7c d73f a987 8f3f
000002c0: 8c17 1d3c 80d6 163f b559 0dbf 6660 febe
000002d0: 8ae5 0ebf e183 fdbd c187 383f 9949 00bf
000002e0: 191b 0cbf e902 b53f e24e 653f 9a97 1d3f
000002f0: a13a b33d 41b4 613f eaed b33d c690 993e
00000300: 510c 473e 8e7c 943e 327e 873f 8620 e33f
00000310: 8ec6 dabe 89bc 873e bf60 5e3f 395a 2b3f
00000320: c303 e3be 46ae b53e 430b 8e3f b831 69be
00000330: e5ae c03e 1f9d 90be 3912 82bf 8875 30bf
00000340: 0830 32bf 549a aebe a2e1 03be 55d8 aabe
00000350: 1fc9 91be 965b 28bf ecae a63e a009 033f
00000360: 9080 eabe cafd 6b3c f9f2 273e 4195 a43f
00000370: 4833 2bbf 1fd7 3bbf 2b8b a13f 5516 973f
00000380: 4076 0d40 f362 883f 42b1 873f 1787 d53f
00000390: 923c 823e 3a3f b5be e271 30bf ee8e 323f
000003a0: d3b1 113f 1f69 a23d 2f11 603e 2432 c3be
000003b0: 1ada 0c3f 5b51 a8be 4da9 98bf 6026 293d
000003c0: 784d 54bf 465c 3ebf 7122 b9be 3edd 4c3d
000003d0: 9b68 88bf bace 80bf de43 dfbe 6b07 57be
000003e0: 6a57 30be cb02 6a3e ca41 303f ad61 95bf
000003f0: a675 3fbf 30ef ecbe 80b5 0dbf 81df 743f
